models/autoencoder.pt (torch, 458635 bytes, 15 tensors)

encoder.0.weight f4 [16, 1, 3, 3]
0	0xbe47d8ca	-0.19516292
1	0xbc0654b5	-0.008198907
2	0xbdee23a1	-0.116278894
3	0xbc40420d	-0.011734498
4	0xbeae6f25	-0.34069172
5	0x3e2dd6c1	0.16976453
6	0xbe8ea32d	-0.27858868
7	0x3e5702ea	0.20997205
8	0xbd96c4dc	-0.07361767
9	0x3d66c14f	0.056336697
10	0xbe3e8bcc	-0.18608016
11	0x3db9ae16	0.090664074
12	0x3dc45f1e	0.09588455
13	0x3e86e981	0.26350024
14	0xbdcf72d5	-0.10129324
15	0x3e6c5fe0	0.23083448
16	0xbe51aa5a	-0.2047514
17	0x3db7e75d	0.08979676
18	0xbe98964f	-0.29802176
19	0x3e50927b	0.20368378
20	0xbeae49d6	-0.34040707
21	0xbd4c7210	-0.049913466
22	0x3e789d82	0.24278834
23	0x3e84b941	0.25922588
24	0xbe0205cd	-0.12697525
25	0xbe8a09ec	-0.26960695
26	0x3ca6cdb5	0.02036176
27	0x3e9c21bf	0.30494496
28	0x3e3a85ab	0.18215053
29	0x3e8d88ec	0.27643526
30	0x3db2e436	0.08734934
31	0xbe336e3e	-0.17522523
32	0x3e963483	0.29336938
33	0x3c2b759a	0.01046505
34	0x3dd68c12	0.10475935
35	0x3e8d6140	0.27613258
36	0xbe84df12	-0.2595144
37	0x3d626a15	0.05527695
38	0xbe94f0d6	-0.29089993
39	0x3d709245	0.058733243
40	0xbe4d2a6d	-0.20035715
41	0x3caaaaa8	0.020833328
42	0xbea818d7	-0.3283145
43	0x3da34dc4	0.07973817
44	0x3e7c3d06	0.24632654
45	0x3c985a5e	0.018597778
46	0xbe822242	-0.25416762
47	0x3ded89be	0.11598538
48	0xbe80a42d	-0.25125256
49	0x3e2ebf54	0.17065173
50	0x3e6cbde0	0.23119307
51	0x3e259738	0.16170967
52	0xbe77795d	-0.2416739
53	0x3e456fcf	0.19280933
54	0x3e154a2a	0.14579073
55	0xbc29a751	-0.010354833
56	0x3dfc8287	0.123295836
57	0x3c00967a	0.007848376
58	0xbe82d200	-0.25550842
59	0xbe430ec9	-0.19048609
60	0x3e9cc137	0.3061616
61	0x3e7c5932	0.246434
62	0x3e1b2798	0.15151823
63	0xbe5da101	-0.2164345
64	0xbe8ff11a	-0.28113633
65	0xbe86d78f	-0.26336333
66	0x3e56bbbe	0.20970055
67	0x3e2213ef	0.15827917
68	0x3e490b06	0.19633111
69	0xbd63de53	-0.055631947
70	0x3e3328a0	0.17495966
71	0xbe0dbc32	-0.13841322
72	0xbe3be193	-0.18347768
73	0xbdfb827d	-0.12280748
74	0xbd0b04ab	-0.03394
75	0xbe4b9bb2	-0.19883612
76	0xbd39dc89	-0.045376334
77	0xbe2348ae	-0.15945694
78	0xbdf08de3	-0.11745813
79	0x3e2b1065	0.16705473
80	0x3ea13362	0.31484514
81	0x3ea03fcf	0.31298682
82	0x3cf57c5f	0.029966531
83	0xbd0ba594	-0.034093454
84	0xbc9687b9	-0.018375264
85	0xbd182fb6	-0.037154876
86	0x3e7d04f0	0.24708915
87	0x3e4fcfac	0.20294064
88	0x3d43969a	0.047751047
89	0xbe1c6f72	-0.15276888
90	0xbe924bad	-0.2857336
91	0x3def6b98	0.11690444
92	0xbeaada5a	-0.33369714
93	0x3e59c014	0.21264678
94	0xbe261614	-0.1621936
95	0xbcf46927	-0.029835297
96	0x3ea6b950	0.32563257
97	0xbd694d03	-0.05695821
98	0x3e0b0f83	0.13580136
99	0x3e99df9b	0.3005341
100	0xbe3064ed	-0.17226
101	0xbe917d03	-0.2841569
102	0x3e2a0230	0.16602397
103	0xbc453c0a	-0.01203824
104	0xbe292b5b	-0.16520445
105	0x3dd52ea9	0.1040929
106	0xbea1a247	-0.3156912
107	0x3c557441	0.013028205
108	0xbdbc18e9	-0.09184439
109	0xbe851489	-0.2599223
110	0x3e1dec45	0.15422161
111	0x3e975015	0.29553285
112	0xbe275b0d	-0.16343327
113	0x3e80bb18	0.2514274
114	0x3e919048	0.2843039
115	0x3ea2b55b	0.31778988
116	0x3e5e3fc0	0.21704006
117	0x3d9c3de3	0.076289915
118	0x3e82cab8	0.25545287
119	0xbe5bb040	-0.21453953
120	0x3da557ba	0.08073373
121	0x3e9e1ca4	0.30881226
122	0x3decc62d	0.115612365
123	0x3de8953b	0.113565885
124	0xbe9ce4df	-0.30643365
125	0xbe8dd083	-0.27698144
126	0xbe7dc57d	-0.24782367
127	0x3e4d891e	0.20071837
128	0xbe9b05c0	-0.30277824
129	0x3d4bc17b	0.049745064
130	0xbd9b85de	-0.075938925
131	0x3d8651be	0.0655856
132	0xbd4a3145	-0.049363393
133	0xbe4858ec	-0.19565171
134	0x3cd3fadd	0.025876457
135	0xbe3bb131	-0.18329312
136	0xbe477edd	-0.19481988
137	0x3de0340a	0.10947426
138	0x3e87e611	0.26542714
139	0xbdf8b191	-0.12143243
140	0xbd9d79d7	-0.07689255
141	0x3e88e0c5	0.26733986
142	0xbe864227	-0.26222345
143	0xbea40d09	-0.32041195

encoder.0.bias f4 [16]
0	0x3e03cad6	0.12870345
1	0xbdc0cdb3	-0.09414234
2	0x3dc3bb23	0.09557178
3	0xbe8d1a60	-0.27559185
4	0x3e44d540	0.19221973
5	0xbc575d8e	-0.013144864
6	0xbe8903d1	-0.26760724
7	0x3e7ccb04	0.2468682
8	0xbe24c0f6	-0.16089234
9	0xbe0a9eb5	-0.13537104
10	0xbd1c3686	-0.038137935
11	0x3e26e32a	0.16297594
12	0x3e1a8fed	0.15093966
13	0xbd6e46e0	-0.05817306
14	0x3e8fe761	0.28106216
15	0x3e368b23	0.17826514

encoder.2.weight f4 [32, 16, 3, 3]
0	0x3d57ad6f	0.052655634
1	0x3c9cc1d8	0.0191354
2	0xbe344112	-0.17602947
3	0xbdc1dc64	-0.09465864
4	0x3d24fb60	0.040278792
5	0xbcaf08f5	-0.021366576
6	0x3d2aa0b4	0.041657165
7	0x3d079c59	0.03310809
8	0xbcc56909	-0.024097936
9	0xbda33b06	-0.07970242
10	0x3bd359a2	0.006449894
11	0x3d92c1ec	0.07165894
12	0x3c83b282	0.01607633
13	0xbd7c9a4c	-0.061670586
14	0x3d7ccf14	0.061720923
15	0x3da56fa3	0.08077934
16	0xbd510d5e	-0.05103814
17	0x3d2afd17	0.04174527
18	0xbdae150f	-0.0850011
19	0x3b71f778	0.0036921185
20	0x3d515035	0.051101882
21	0xbb97a527	-0.004627842
22	0xbd0585c1	-0.03259826
23	0x3c3488d9	0.011018955
24	0x3a1027c6	0.0005499091
25	0x3da3b715	0.079939045
26	0x3d360a71	0.04444355
27	0x3d9ebaee	0.07750498
28	0x3d065a0c	0.03280072
29	0x3d0d1395	0.034442503
30	0xbccbd1d0	-0.02488032
31	0xbd8fd1aa	-0.07022412
32	0xbd42559b	-0.04744492
33	0x3c4140d7	0.011795244
34	0x3d43dc1c	0.047817335
35	0xbcf85a7e	-0.030316588
36	0xbcdb8f8b	-0.026801845
37	0xbd799938	-0.060937136
38	0xbc910f2c	-0.01770743
39	0x3d0c99e3	0.034326445
40	0xbdabcb2c	-0.08388361
41	0xbe05fe05	-0.13085182
42	0x3d44d40d	0.04805379
43	0x3d3563ee	0.044284754
44	0xbd95c4bc	-0.07312915
45	0xbd8ef7fe	-0.069808945
46	0xbcd4824a	-0.025941033
47	0xbd87fb03	-0.066396736
48	0x3dafe243	0.08588078
49	0x3d5bd103	0.053666126
50	0xbd5f9114	-0.054581717
51	0x3aeff110	0.0018306095
52	0x3d5b1025	0.053482193
53	0xbce6378f	-0.028102664
54	0x3d396181	0.045259003
55	0x3c2027a3	0.009775075
56	0x3d20c237	0.039247718
57	0x3d5d55b9	0.05403683
58	0x3da9b509	0.08286483
59	0x3c096401	0.008385659
60	0xbd69a667	-0.05704346
61	0x3ceb3ae8	0.028714612
62	0x3d00cc01	0.031444553
63	0xbd3c25c7	-0.045934465
64	0xbd70b27f	-0.058763977
65	0x3c525b03	0.012839082
66	0xbd0b2c85	-0.033978004
67	0x3cc316a0	0.0238145
68	0x3d22f872	0.039787717
69	0xbdaa6523	-0.083200715
70	0x3cf50afb	0.029912462
71	0x3c046fb4	0.008083273
72	0x3dce0269	0.100590535
73	0x3d3b4801	0.045722965
74	0x3d43d494	0.047810152
75	0x3d897edc	0.0671365
76	0x3d274379	0.04083583
77	0xbd3191d5	-0.043351967
78	0xbcce0c50	-0.025152355
79	0x3d99589f	0.07487606
80	0xbd43a2ce	-0.047762685
81	0x3d77bc07	0.06048205
82	0x3d571f50	0.052520096
83	0x3d555b3b	0.052088957
84	0x3d662b49	0.056193624
85	0xbd6c2871	-0.057655755
86	0xbb87f8f5	-0.004149551
87	0x3d9d51a4	0.07681587
88	0x3daee757	0.08540218
89	0xbc396df8	-0.0113177225
90	0x3dac2c30	0.084068656
91	0xbb136048	-0.0022487808
92	0x3d2a45fd	0.041570652
93	0x3d3aa90f	0.045571383
94	0xbd75cbb2	-0.060008712
95	0x3bfff200	0.007810831
96	0xbda97693	-0.08274569
97	0xbe007e64	-0.12548214
98	0xbd2a3781	-0.04155684
99	0xbd8f3f5d	-0.069945075
100	0x3c5b219a	0.01337471
101	0xbd650e7f	-0.055922028
102	0xbdd2da3b	-0.102955304
103	0xbca0f17b	-0.019646397
104	0x3d610948	0.054940492
105	0xbbbcf262	-0.005766199
106	0x3d8f36f6	0.06992905
107	0x3d8da27d	0.06915758
108	0xbd5d7f8d	-0.05407672
109	0xbd868da1	-0.06569982
110	0x3d14624d	0.03622656
111	0x3d80a23b	0.06280943
112	0xbcb5e6a0	-0.022204697
113	0xbc451336	-0.012028506
114	0xbd8a6eab	-0.067593895
115	0x3c487099	0.012233877
116	0xbd18b5ab	-0.037282627
117	0x3da9dbcb	0.08293875
118	0x3d1020b7	0.03518745
119	0x3cdb8183	0.026795154
120	0x3c1f6707	0.0097291535
121	0x3d9a2e85	0.07528404
122	0x3d9420ce	0.072328195
123	0xbd9e03d7	-0.07715576
124	0x3a592a86	0.00082842296
125	0xbd5d082c	-0.05396287
126	0xbd8cfd37	-0.068842344
127	0x3d18f22e	0.037340336
128	0x3d723435	0.05913182
129	0x3c6a0cc8	0.014285274
130	0xbd800987	-0.06251817
131	0x3d0cda03	0.0343876
132	0x3d20585c	0.039146766
133	0x3c589423	0.013218912
134	0x3cf460a0	0.02983123
135	0xbcae024d	-0.021241331
136	0x3cf02039	0.02931224
137	0xbbf9afcb	-0.007619833
138	0x3d0046ec	0.031317636
139	0xbdd07eeb	-0.10180458
140	0xbd64fbaa	-0.055904068
141	0xbcc32dcc	-0.023825549
142	0xbd3ed893	-0.04659326
143	0x3cb33a7d	0.021878475
144	0xbdd3ab64	-0.103354245
145	0xbd8464e2	-0.06464554
146	0x3c1ce1c9	0.009575316
147	0xbb442097	-0.0029926652
148	0xbd90f3b7	-0.07077735
149	0xbd8d0547	-0.06885772
150	0xbd2c050d	-0.041997004
151	0xbd83953f	-0.06424951
152	0xbdb697c4	-0.08915666
153	0xbd20fa1b	-0.03930102
154	0x3cecbb16	0.028897803
155	0x3c803b25	0.015653202
156	0xbd92eb9c	-0.07173845
157	0xbc2aa6ed	-0.010415775
158	0x3cd2dfbd	0.025741452
159	0xbcae2243	-0.021256572
160	0xbd90613e	-0.070497975
161	0xbd0636d1	-0.03276712
162	0xbb94c746	-0.004540357
163	0x3d5d6746	0.054053567
164	0x3c9ecc50	0.019384533
165	0xbd138ea4	-0.036024705
166	0xbd7de40f	-0.06198507
167	0xbab469dc	-0.0013764459
168	0x3cf9a1ac	0.030472599
169	0xbc981f4e	-0.018569615
170	0xbdc07e4c	-0.09399089
171	0xbd136342	-0.03598333
172	0x3cca27d2	0.02467719
173	0x3d01a48b	0.03165106
174	0x3aad0ff5	0.0013203608
175	0x3d69249d	0.056919683
176	0xbc3e6432	-0.011620568
177	0xbcc859b5	-0.024456838
178	0x3da36148	0.07977539
179	0xbd876659	-0.06611318
180	0x3d1880e2	0.037232287
181	0x3aabd9f4	0.001311122
182	0xbc3e4d4a	-0.011615107
183	0xbdcfa4d5	-0.10138861
184	0x3d89e8b6	0.06733839
185	0x3d36fbe9	0.044673834
186	0x3cc32848	0.023822919
187	0xbdb391c6	-0.087680385
188	0xbbb4ad9e	-0.005513861
189	0x3b9224a0	0.0044599324
190	0xbce71b9b	-0.028211406
191	0x3d693cbd	0.05694269
192	0x3cf88fa6	0.030341934
193	0xbc5db170	-0.013531074
194	0xbd12e951	-0.03586704
195	0xbd3be139	-0.045869086
196	0xbd3f8c3d	-0.0467646
197	0x3d5994a0	0.053120255
198	0xbcb461ba	-0.022019256
199	0xbd87edcd	-0.06637154
200	0x3d30f7d6	0.043205105
201	0x3d5bcf3f	0.053664442
202	0x3ca74b0f	0.020421533
203	0xbd5796e3	-0.05263413
204	0x3d3e9984	0.046533123
205	0x3da557eb	0.0807341
206	0x3d9643be	0.073371395
207	0x3cc44cc1	0.02396238
208	0xbc2a607e	-0.010398982
209	0x3d1f67c2	0.03891731
210	0x3d40c8e0	0.04706657
211	0xbd0afddf	-0.033933517
212	0x3d39a958	0.045327514
213	0xbc82dd21	-0.015974583
214	0xbd8d550d	-0.06900988
215	0xbcf72531	-0.030169101
216	0x3d94943e	0.072548375
217	0x3d07ba9b	0.033136945
218	0xbd08f33d	-0.033435095
219	0xbdb85442	-0.09000446
220	0xbdbfea10	-0.09370816
221	0x3d12c2f8	0.035830468
222	0x3dc78b3d	0.097433545
223	0xbdbe63f0	-0.09296405
224	0x3d791f86	0.06082108
225	0xbce97bf7	-0.028501494
226	0xbda3f334	-0.08005372
227	0x3d6bc119	0.0575572
228	0xbd9c977b	-0.0764608
229	0x3d9ffe04	0.078121215
230	0x3d052ae4	0.032511607
231	0xbd611e10	-0.05496031
232	0xbd2d8ab7	-0.042368617
233	0xbd1bf7fd	-0.038078297
234	0xbd1a0b24	-0.03760828
235	0xbda33633	-0.07969322
236	0x3d1b5a23	0.037927758
237	0x3d80fa0a	0.06297691
238	0xbbe7f5b9	-0.007078853
239	0x3d5ccaf2	0.05390448
240	0xbd584af5	-0.05280586
241	0x3d72753e	0.059193842
242	0x3b6d7570	0.0036233328
243	0xbc0548ed	-0.008135063
244	0xbd69d7e2	-0.057090648
245	0xbce88a1a	-0.028386164
246	0x3c06c767	0.008226252
247	0xbdb76618	-0.0895502
248	0xbd5a0391	-0.053226057
249	0x3c5a584f	0.0133267185
250	0xbc1ea3aa	-0.009682575
251	0xbdb585a2	-0.08863379
252	0x3d7e00ee	0.062012605
253	0xbc7f0dcd	-0.015567255
254	0xbc78637c	-0.015160438
255	0xbc0bcff6	-0.0085334685

encoder.2.bias f4 [32]
0	0xbd1c92e1	-0.038226012
1	0xbd6a8f48	-0.05726555
2	0xbd988d5e	-0.07448839
3	0xbc020a16	-0.007936975
4	0xbd9f5a22	-0.07780863
5	0xbda30727	-0.079603486
6	0x3bb82f00	0.005620837
7	0xbd1fdca0	-0.039028764
8	0x3c2ab569	0.010419228
9	0x3d66c1c3	0.05633713
10	0x3cf721ee	0.030167546
11	0xbd3afa75	-0.04564901
12	0xbd27bfd2	-0.04095442
13	0x3d6b4ce9	0.057446394
14	0xbce0494c	-0.0273787
15	0xbd18e392	-0.037326403
16	0xbd5a12d2	-0.053240605
17	0xbd10ae8b	-0.035322707
18	0xbd91f391	-0.07126535
19	0x3d958e39	0.073025174
20	0x3d121b5c	0.035670623
21	0x3c22287e	0.009897349
22	0xbcd1c847	-0.025608195
23	0x3cd9ef22	0.026603285
24	0x3cd42e38	0.025900945
25	0xbd0b05a4	-0.033940926
26	0x3cf5f38d	0.03002336
27	0x3dc33adf	0.09532713
28	0x3d118f19	0.03553686
29	0xbded3e9b	-0.11584207
30	0x3a8d6096	0.0010786231
31	0x3d3b2cb8	0.045696944

encoder.4.weight f4 [64, 32, 3, 3]
0	0xbb843b08	-0.0040353574
1	0xbd3c3886	-0.045952342
2	0x3bd02349	0.0063518626
3	0xbd5f509a	-0.054520227
4	0xbddecffc	-0.108795136
5	0xbd5caaa6	-0.05387368
6	0xbb588a38	-0.003304137
7	0xbdab039f	-0.083503
8	0xbcaeb876	-0.021328192
9	0xbe0bc4e1	-0.13649322
10	0xbc3036ff	-0.0107553
11	0x3cae87be	0.021304961
12	0xbc1f091b	-0.009706761
13	0xbbf7e5b3	-0.007565224
14	0xbce59709	-0.02802612
15	0xbdbab1f2	-0.091159716
16	0xbcb0a452	-0.021562729
17	0x3d9a3d4a	0.07531221
18	0x3d3ad056	0.04560884
19	0xbd4d9553	-0.050191235
20	0xbbc3d6ef	-0.00597655
21	0x3c555b49	0.013022252
22	0x3c463f87	0.012100107
23	0x3b433903	0.002978862
24	0xbaa23113	-0.0012374244
25	0x3c2ac258	0.010422312
26	0xbb513061	-0.0031919705
27	0xbdd6edb0	-0.10494554
28	0x3d818c95	0.06325642
29	0xbce14508	-0.027498737
30	0xbd9a00e8	-0.07519704
31	0xbb962d21	-0.0045830165
32	0x3c31db0d	0.010855448
33	0xbdc03a9a	-0.09386177
34	0xbdcbedb2	-0.09957446
35	0xbc43ca2b	-0.011950056
36	0xbc913881	-0.017727138
37	0xbcbc6c60	-0.023000896
38	0x3d491ade	0.04909789
39	0xbd848b1e	-0.06471847
40	0xbd1a8f5f	-0.037734386
41	0x3c732ee9	0.014842727
42	0x3bfe4599	0.0077597615
43	0x3b202603	0.002443672
44	0x3d516076	0.051117383
45	0xbe0de83d	-0.13858123
46	0x3d675681	0.05647898
47	0x3d88ca91	0.066792615
48	0xbb9627a9	-0.0045823646
49	0xbdd6b7bf	-0.104842655
50	0x3dd5e544	0.104441196
51	0xbdbd9c36	-0.092583105
52	0xbdcadef1	-0.09905804
53	0x3c8ae78d	0.016956115
54	0xbdaf9f30	-0.085752845
55	0xbd311392	-0.043231554
56	0x3c1178a4	0.008878861
57	0xbdef6718	-0.116895854
58	0xbe02dd24	-0.12779671
59	0x3d03ef85	0.032210846
60	0xbd562da5	-0.052289624
61	0xbe05e38c	-0.13075083
62	0x3b520b7e	0.0032050307
63	0xbd9cd0e4	-0.0765703
64	0x3dc60144	0.0966821
65	0x3c4afbb1	0.0123891095
66	0xbcfa25d2	-0.030535612
67	0xbd134c12	-0.03596122
68	0x3d6a8329	0.05725399
69	0xbd286c24	-0.041118756
70	0x3d071bef	0.032985624
71	0x3d767a9d	0.060175527
72	0xbd00025a	-0.031252243
73	0x3d0c081c	0.03418742
74	0x3c5c6e38	0.013454013
75	0x3dba4c4b	0.09096583
76	0xbcf1e0a3	-0.02952606
77	0xbd3d2ddc	-0.046186313
78	0x3d768b9d	0.06019174
79	0xbd125c97	-0.03573283
80	0xbc15d5d2	-0.009145217
81	0xbe062bee	-0.13102695
82	0x3ca043cf	0.019563584
83	0xbc7b15e5	-0.015325044
84	0xbd579b86	-0.052638553
85	0xbdd374bd	-0.103250004
86	0xbc1217c8	-0.008916803
87	0xbde52f2f	-0.1119064
88	0xbcdfb7d2	-0.027309332
89	0xbce3f72a	-0.027827818
90	0xbd8fa5c6	-0.07014041
91	0x3d64ae93	0.05583055
92	0x3df789fe	0.12086867
93	0xbdf9c657	-0.121960334
94	0x3d5587f9	0.052131627
95	0x3dc7f993	0.097643994
96	0xbd4292d5	-0.04750331
97	0x3c8a2862	0.01686496
98	0x3cb14e71	0.02164385
99	0xbdbe721f	-0.092991106
100	0x3cfcc2bc	0.030854575
101	0x3d3ab115	0.045579035
102	0xbd719972	-0.058984227
103	0xbd559fa7	-0.05215421
104	0x3cee5b54	0.029096283
105	0xbdb1e65f	-0.08686518
106	0x3d1256bd	0.03572725
107	0x3cb758b9	0.022381173
108	0x3c3407fc	0.010988232
109	0x3ca1b9de	0.019741949
110	0x3d315962	0.043298133
111	0xbc2bd9ea	-0.0104889665
112	0xbc12b9c0	-0.008955419
113	0x3d6c3d55	0.05767568
114	0x3bfa0188	0.007629577
115	0xbc133231	-0.0089841345
116	0x3d4f1169	0.050553713
117	0xbcc1c6df	-0.0236544
118	0x3cb7bfde	0.022430357
119	0x3cc49a1f	0.023999272
120	0x3ca2485a	0.01980989
121	0x3d11b434	0.035572246
122	0x3d98c100	0.07458687
123	0xbca22f83	-0.019798046
124	0x3bcd0072	0.0062561566
125	0x3ca76c30	0.02043733
126	0xbdd1cd03	-0.10244181
127	0xbd5fdffb	-0.054656964
128	0x3b5500fc	0.0032501807
129	0xbd543322	-0.051806577
130	0xbbe85346	-0.007090005
131	0x3c3614d1	0.011113361
132	0xbd8af28d	-0.06784544
133	0x3c875b39	0.01652299
134	0xba3306f8	-0.00068293465
135	0xbdc1fcb1	-0.09472025
136	0x3d3d866a	0.046270765
137	0x3d604076	0.054748975
138	0xbda459bc	-0.08024928
139	0xbdc3a3cd	-0.09552727
140	0x3ac09b6e	0.0014694759
141	0xbdb2cbcc	-0.087302774
142	0xbdf7e36a	-0.12103923
143	0x3d1d4b24	0.038401738
144	0xbdc138e0	-0.09434676
145	0x3cf47c3d	0.029844398
146	0x3d4f83f1	0.05066294
147	0xbd45796d	-0.048211504
148	0xbc5495ba	-0.012975151
149	0x3da92f71	0.08261002
150	0xbdabe66e	-0.0839356
151	0xbd4f1e6b	-0.05056612
152	0x3cf6885f	0.030094324
153	0xbd224053	-0.039612126
154	0x3cc63efd	0.024199957
155	0x3d5b8aa0	0.053599
156	0xbd8f074d	-0.069838144
157	0xbdb097c6	-0.086226985
158	0x3da6dab9	0.08147187
159	0xbd3e86dd	-0.046515334
160	0xbdc5ca3e	-0.09657715
161	0x3c9cb7a5	0.019130537
162	0xbe3594e4	-0.17732579
163	0x3dbb4c6b	0.09145435
164	0x3d98c875	0.07460109
165	0x3cdf19e7	0.02723403
166	0xbd8a4d5a	-0.06753035
167	0x3d4a152e	0.049336605
168	0xbdfa742d	-0.1222919
169	0xbd7959d9	-0.0608767
170	0x3da86dad	0.08224044
171	0xbcc152d3	-0.023599064
172	0x3d9fce8e	0.07803069
173	0x3d2098f2	0.03920836
174	0xbd9db1a8	-0.07699901
175	0xba2e314d	-0.00066449196
176	0xbcfa83f7	-0.030580504
177	0x3c07527f	0.008259415
178	0x3d2a09bc	0.04151319
179	0xbcddcfb9	-0.027076589
180	0xbdc99302	-0.09842493
181	0x3d64128e	0.055681758
182	0x3d91dcb4	0.07122174
183	0xbc79249e	-0.015206484
184	0xbc6c69b5	-0.014429499
185	0x3c7aa32a	0.01529769
186	0xbc0b5506	-0.008504158
187	0xbd20a46e	-0.039219312
188	0xbcb9b57e	-0.02266955
189	0xbdda2302	-0.106512085
190	0xbbc0dd35	-0.005885745
191	0x3dafdeff	0.08587455
192	0xbde9f8a7	-0.1142438
193	0xbdba8aac	-0.09108481
194	0x3d945524	0.07242802
195	0xbde985b1	-0.11402453
196	0xbdb542e6	-0.088506505
197	0xbbc00c94	-0.0058608744
198	0xbd8163b5	-0.06317846
199	0xbc8e5769	-0.017375665
200	0x3d0a1371	0.033709947
201	0xbdabaf27	-0.08383017
202	0xbda23388	-0.07919985
203	0xbb657a9d	-0.003501571
204	0xbdc03a96	-0.093861744
205	0xbca4efa9	-0.02013381
206	0xbccf1885	-0.025280247
207	0xbc9f149e	-0.01941901
208	0xb8a478c8	-7.842627e-05
209	0xbbf7b72d	-0.007559678
210	0x3d39ff4a	0.04540948
211	0xbced4083	-0.028961426
212	0xbb8a154e	-0.0042139655
213	0x3d3359aa	0.043786682
214	0x3d26f4f1	0.040760938
215	0xbd52cae6	-0.05146303
216	0x3d4db117	0.050217714
217	0xbdbf251f	-0.09333252
218	0x3e42f9a8	0.19040549
219	0x3ca3f461	0.02001399
220	0xbdb073bf	-0.08615827
221	0xbd64b55b	-0.055837017
222	0xbd42ce09	-0.04755977
223	0x3c63be3c	0.013900336
224	0x3a099a42	0.00052491215
225	0xbda9f244	-0.082981616
226	0xbd17a530	-0.03702277
227	0x3d3f3a3d	0.0466864
228	0xbd3247ad	-0.043525387
229	0xbda72220	-0.08160806
230	0xba8b18ee	-0.0010612288
231	0xbe020661	-0.12697746
232	0xbd6ac71f	-0.057318803
233	0x3d60a15a	0.054841377
234	0x3d7200d6	0.05908283
235	0xbc60fd8a	-0.013732323
236	0xbd6939d8	-0.05693993
237	0xbdba6af1	-0.09102429
238	0xbb312373	-0.0027029186
239	0x3de0eea1	0.10983015
240	0x3d69b072	0.057053037
241	0x3cd11967	0.025524808
242	0xbc5d1f8b	-0.01349629
243	0xbb40b34c	-0.0029403744
244	0xbe910c23	-0.28329572
245	0xbd589069	-0.052872095
246	0xbe7d12e5	-0.24714239
247	0x3d6054e5	0.05476846
248	0xbc3d0f80	-0.01153934
249	0xbdef2bc3	-0.11678269
250	0x3c32466a	0.010881046
251	0xbd40bc71	-0.04705471
252	0xbd49ede5	-0.04929914
253	0x3d16fbd4	0.036861256
254	0xbd3c9d93	-0.046048712
255	0xbc23e0e9	-0.010002353

encoder.4.bias f4 [64]
0	0xbd6fb4f0	-0.058522165
1	0x3a3fb57b	0.00073131145
2	0x3bff56cc	0.0077923294
3	0xbd5fd67d	-0.05464791
4	0xbd5578e1	-0.052117232
5	0xbbde3ee3	-0.006782399
6	0x3d0472fe	0.032336228
7	0xbd2ce127	-0.04220691
8	0x3c0817cb	0.008306454
9	0xbd88c25c	-0.06677696
10	0x3cf77891	0.030208858
11	0xbc9fa459	-0.019487547
12	0x3ce81d5e	0.028334316
13	0x3caec26c	0.021332942
14	0x3c1ebd26	0.009688651
15	0x3b8cd923	0.0042983457
16	0x3cebe144	0.028793938
17	0xbd93027b	-0.071782075
18	0xbc030ada	-0.007998193
19	0x3c31cf78	0.010852687
20	0xbd3fa3be	-0.046787016
21	0xbd0f9158	-0.03505072
22	0xbc214a6f	-0.0098444065
23	0xbc764ba5	-0.0150326835
24	0xbd28d12b	-0.041215103
25	0x3c3048ca	0.010759542
26	0x3cd16b23	0.025563782
27	0xbd186733	-0.037207793
28	0x3c36a853	0.01114853
29	0x3cf2d279	0.029641377
30	0xbc843388	-0.016137853
31	0x3cdb4a29	0.02676876
32	0x3c065522	0.008199008
33	0x3c4e8c0f	0.012606635
34	0x3d2cce48	0.042188913
35	0xbbfc7d78	-0.0077053867
36	0x3cd70701	0.026248457
37	0x3b236937	0.002493454
38	0x3c234bfa	0.009966845
39	0x3bf9db6e	0.007625035
40	0xbcaa9fc8	-0.020828143
41	0xbcb9237b	-0.022599926
42	0xbca5f898	-0.02026014
43	0xbc3a67ff	-0.011377334
44	0x3bc55bf0	0.0060229227
45	0x3ca24170	0.019806594
46	0x3cae9cfb	0.021315088
47	0xba4c7dc1	-0.0007800721
48	0xbcf51f8d	-0.029922271
49	0xbd3caf34	-0.046065524
50	0x3c86e53f	0.016466735
51	0xbb347561	-0.0027535784
52	0xbd0ec466	-0.03485527
53	0xbb9f5e86	-0.004863563
54	0xbc983860	-0.01858157
55	0x3ca5983b	0.02021419
56	0xbcd0f746	-0.025508534
57	0x3ca4c2f6	0.020112496
58	0x3c709d23	0.014685902
59	0xbd0ed51e	-0.034871213
60	0xbcab5d07	-0.020918382
61	0xbcbaa45e	-0.022783455
62	0x3beec4ed	0.007286659
63	0xbc53392f	-0.012892052

encoder.7.weight f4 [2, 13312]
0	0x3bacb393	0.0052704304
1	0x3cb5d6a3	0.022197073
2	0x3c78fcbd	0.015196976
3	0x3c97976d	0.018504823
4	0x3ca06eae	0.019584026
5	0x3c8c22ae	0.01710638
6	0x3bdaa1d3	0.006672123
7	0x3c6a2bdf	0.014292686
8	0x3c1c62a3	0.009545001
9	0x3c1b3273	0.009472477
10	0x3c923502	0.017847542
11	0x3ca3758c	0.019953512
12	0x3be876b3	0.007094228
13	0x3ca07399	0.019586371
14	0x3c4d5751	0.012533025
15	0x3bbd5b90	0.0057787374
16	0x3bda2655	0.0066574016
17	0xbba329a1	-0.004979328
18	0xbc4e7714	-0.012601633
19	0xbc6dbc19	-0.014510178
20	0xbc44579e	-0.01198378
21	0xbb43b4ac	-0.0029862328
22	0xbaa11cc3	-0.0012291897
23	0xbb8add2b	-0.004237791
24	0xbbbafdaf	-0.005706511
25	0xbc979aa4	-0.018506356
26	0xbb540e6a	-0.0032357224
27	0xbbd78713	-0.0065773814
28	0xbc664427	-0.014054335
29	0xbbd4b17b	-0.006490884
30	0xbc069329	-0.008213797
31	0xbb6c397c	-0.0036045006
32	0xbc0931e0	-0.0083737075
33	0xbc5b4ab7	-0.013384513
34	0xbc3a6371	-0.011376248
35	0xbbb26863	-0.005444573
36	0xbc8230f5	-0.015892485
37	0xbc2bcca3	-0.010485801
38	0xbc2fdb90	-0.0107335
39	0xbc509066	-0.01272974
40	0xbc58c296	-0.013229987
41	0x3cd11662	0.025523368
42	0xbb8ae71a	-0.0042389752
43	0xbbca13a5	-0.0061668926
44	0xbc985f42	-0.01860011
45	0xbba6c14e	-0.0050889617
46	0xbc521da5	-0.012824451
47	0xbbe881c0	-0.0070955455
48	0xb9873336	-0.00025787362
49	0xbb823d90	-0.003974624
50	0xbc02145b	-0.007939423
51	0xbc3de14a	-0.011589358
52	0xbaf495e4	-0.0018660394
53	0xbb6bbcb6	-0.0035970635
54	0x3db2b3ac	0.08725676
55	0xbc2f34ac	-0.01069371
56	0xbbaf611d	-0.005352153
57	0xbc5b885c	-0.01339921
58	0xbcbcd735	-0.023051837
59	0xbc4a0a11	-0.012331502
60	0xbcc61186	-0.024178278
61	0xbc828e24	-0.015936919
62	0xbc3f189e	-0.011663584
63	0xbb412ff1	-0.0029478038
64	0xbb3032c4	-0.0026885727
65	0xbb675159	-0.003529629
66	0xbc8fc97d	-0.017552132
67	0xbc2dfa37	-0.010618738
68	0xbc69e12b	-0.014274876
69	0xbbc852f2	-0.0061134035
70	0xbda905c0	-0.0825305
71	0xbcd35683	-0.025798088
72	0xbcb6b313	-0.022302186
73	0xbc45125a	-0.012028301
74	0xbc4d9b42	-0.012549223
75	0xbc589206	-0.013218408
76	0xbc4049e6	-0.011736369
77	0xbc8a7e80	-0.016906023
78	0xbc37c9d3	-0.011217552
79	0xbbe1357a	-0.00687283
80	0xbaf104f8	-0.0018388322
81	0xbc137d1d	-0.009001997
82	0xbb87911a	-0.0041371705
83	0xbbb0dd1c	-0.005397452
84	0x3c2de4c3	0.010613623
85	0xbe06ab57	-0.13151298
86	0x3c2c6389	0.010521778
87	0xbb86b312	-0.0041107023
88	0xbbabe783	-0.005246104
89	0x3b0d720c	0.002158287
90	0x3be46370	0.0069698617
91	0xbb8fd1dc	-0.004389031
92	0xbb675045	-0.0035295647
93	0xbbade5b9	-0.005306926
94	0xbc9c3ed8	-0.019072935
95	0x3c014d2d	0.007891935
96	0xbd3cafd3	-0.046066117
97	0xbcc4b194	-0.024010457
98	0x3d4308e1	0.04761589
99	0xbb0e16d6	-0.0021681092
100	0xbc50812f	-0.012726112
101	0x3c12aa7a	0.008951778
102	0x3df4f0bc	0.11959979
103	0x39d6abf4	0.00040945376
104	0x3bd57e8f	0.006515331
105	0xbbaacb13	-0.0052121966
106	0xbbcb0bae	-0.0061964607
107	0xbc035c70	-0.008017644
108	0x3af1882b	0.0018427422
109	0xbc4cd27e	-0.012501357
110	0xbbd122e3	-0.0063823326
111	0xbb2fe07f	-0.002683669
112	0xbbc1fd0d	-0.0059200586
113	0x3d971ba5	0.0737832
114	0x3d17611e	0.036957853
115	0xbbce61a4	-0.0062982608
116	0xbc7f1f51	-0.015571431
117	0x3dc74612	0.09730162
118	0xbd7c7957	-0.061639156
119	0x3e8a7c7d	0.27048102
120	0xbdcf29a5	-0.10115365
121	0x3bb4d084	0.005518021
122	0x399d604b	0.00030017117
123	0xbc00578f	-0.007833376
124	0x3b86e36d	0.0041164667
125	0xbc837bf4	-0.016050316
126	0xbc2bc2b8	-0.010483436
127	0x3b9116a3	0.0044277473
128	0x3be2c17b	0.0069200373
129	0xbc687796	-0.014188668
130	0xbc35dff6	-0.01110076
131	0xbb7f2063	-0.0038929216
132	0xbb4093ce	-0.0029384973
133	0xbc886c77	-0.016653283
134	0xbe198bda	-0.14994755
135	0xbc0035e5	-0.007825349
136	0x3c03081d	0.00799754
137	0x3a8a3458	0.0010544164
138	0xbbf63c51	-0.0075145145
139	0xbb86d0fd	-0.004114269
140	0x3965b905	0.00021908067
141	0xba2716b1	-0.0006373926
142	0xbc24df08	-0.01006294
143	0x3ad7d9fc	0.0016468163
144	0xb8e60b69	-0.0001096938
145	0xbc5aed1b	-0.013362194
146	0xbb9c084b	-0.004761731
147	0xbc3547e2	-0.0110645015
148	0xbc1f2c4d	-0.009715152
149	0xbc4421e9	-0.011970975
150	0xbc0d645e	-0.008629886
151	0xbc50d3d8	-0.01274582
152	0xbc472cf3	-0.012156713
153	0xbc7c195f	-0.015386908
154	0xbbc376ab	-0.005965074
155	0xbc82d67d	-0.015971417
156	0xbc155bd5	-0.009116133
157	0xbb9e6262	-0.0048335055
158	0xbba93139	-0.0051633385
159	0xbaf15250	-0.0018411372
160	0x3b9fb451	0.0048737903
161	0xbc60230c	-0.013680231
162	0xbbafd91f	-0.005366459
163	0xbbcc7641	-0.006239683
164	0xbc58ec4d	-0.013239932
165	0xbbf94dc2	-0.0076081464
166	0xbbc58303	-0.0060275807
167	0xbaff5eb4	-0.001948318
168	0xbc890ac4	-0.016728766
169	0xbc221069	-0.009891608
170	0xbc410561	-0.011781068
171	0xbc6462a2	-0.0139395315
172	0xbc6fcd45	-0.014636342
173	0xbc81e8fc	-0.015858166
174	0xbc5787b4	-0.013154913
175	0x3bc83ecb	0.006111001
176	0xbadcc9d6	-0.001684482
177	0xbbabde19	-0.005244982
178	0xbb6b958f	-0.0035947298
179	0xbb0dffa8	-0.0021667276
180	0xbc7c9321	-0.015415938
181	0xbc4cf58c	-0.012509715
182	0xbbddbdd7	-0.0067670154
183	0xbc72e300	-0.014824629
184	0xbb9dc533	-0.0048147677
185	0xbc8d49e0	-0.01724714
186	0xbc5c3e90	-0.01344265
187	0xbbffc8e5	-0.007805931
188	0xbc926139	-0.017868625
189	0xbc220fd6	-0.009891471
190	0xbc836fe5	-0.016044566
191	0x3ba687c1	0.005082101
192	0xbafd42c8	-0.001932227
193	0xbacb18c7	-0.0015495055
194	0xbbcd269e	-0.006260707
195	0x3bd14674	0.0063865725
196	0xbbf95490	-0.0076089576
197	0x3bfa1554	0.007631937
198	0x3bdc804b	0.006729161
199	0x3b8813bf	0.0041527445
200	0xbb15933b	-0.0022823352
201	0x3be38033	0.006942773
202	0xbb83e14a	-0.0040246593
203	0x3a4dea7a	0.0007855069
204	0x3beb8bd0	0.007188298
205	0x3b52685a	0.0032105655
206	0xbc03ada3	-0.008037004
207	0xbc05db2d	-0.008169931
208	0x3b236701	0.0024933221
209	0xba9a3791	-0.0011765828
210	0xb96651ea	-0.00021965025
211	0xbb703c34	-0.0036656978
212	0xbb962b5f	-0.004582807
213	0xbbc45d28	-0.0059925504
214	0xbbb2096c	-0.005433252
215	0xbb67e2e8	-0.003538305
216	0xbb0021ff	-0.0019551513
217	0x3bf1c386	0.0073780445
218	0x3bd7b9dc	0.0065834355
219	0x3b57f6d3	0.0032953515
220	0xbb878111	-0.004135259
221	0x3bb8cfee	0.0056400215
222	0x3bcff358	0.0063461475
223	0x3c09b7e6	0.008405661
224	0xbbefc6a8	-0.007317383
225	0x3b0dd6fa	0.0021643029
226	0xbc067f79	-0.008209103
227	0xbc20be2d	-0.009810966
228	0xba859c4e	-0.0010193677
229	0xbc20ee97	-0.009822509
230	0x38cf0ceb	9.872935e-05
231	0xbc069aff	-0.008215665
232	0x3a6176b5	0.00086007576
233	0xbc0651e1	-0.008198232
234	0x3b5dbaae	0.0033833194
235	0xbb87c86e	-0.004143766
236	0xbb353c9f	-0.0027654541
237	0x3abeece8	0.0014566453
238	0x3b97634f	0.004619993
239	0xbb353f17	-0.0027656013
240	0xbc03ea39	-0.0080514485
241	0x3b4945f0	0.0030711852
242	0x3b8ef36c	0.0043625142
243	0xbad090f4	-0.001591234
244	0xbc2d131b	-0.010563637
245	0x3ad14780	0.0015966743
246	0xbb49b04f	-0.0030775254
247	0xbc3a3518	-0.011365198
248	0xbbc9f60d	-0.0061633647
249	0x39529b2f	0.00020084971
250	0x3be1676b	0.0068787835
251	0xbbd46b54	-0.006482521
252	0xbbe1a61a	-0.006886256
253	0x3b23d2b0	0.0024997406
254	0xbc3065f6	-0.010766497
255	0x394c3bdd	0.00019477257

encoder.7.bias f4 [2]
0	0xbcf915f4	-0.030405976
1	0xbcb91527	-0.022593094

decoder.0.weight f4 [13312, 2]
0	0x3f2f59ea	0.6849657
1	0x3f11a805	0.56897
2	0xbe8c0a39	-0.2735155
3	0xbe8f3b34	-0.27974856
4	0x3eed106a	0.46301585
5	0xbeeaee97	-0.45885155
6	0x3ec8eb3f	0.3924198
7	0x3e963e47	0.2934439
8	0x3f14de7b	0.5815198
9	0x3f280c8f	0.6564416
10	0x3dcba00b	0.09942635
11	0xbc75e02b	-0.015007059
12	0x3e5e0f81	0.21685602
13	0x3e768c1e	0.24076888
14	0x3e8f2e97	0.27965233
15	0xbe795ab6	-0.2435101
16	0xbef1bdb9	-0.4721506
17	0xbed67836	-0.4188859
18	0xbe47cf9e	-0.19512793
19	0xbe599589	-0.2124845
20	0x3f581eb1	0.8442183
21	0xbeacfa5f	-0.33784768
22	0xbd93f86b	-0.07225116
23	0x3e50b40b	0.20381181
24	0x3f23ece1	0.64033324
25	0xbf0792a6	-0.5295814
26	0x3ee9a8fb	0.45636734
27	0xbe6fe605	-0.23427589
28	0xbf15759c	-0.5838258
29	0x3ecabf4c	0.39599073
30	0xbe2ab14f	-0.166692
31	0x3ec8bd32	0.39206845
32	0xbf073015	-0.5280774
33	0x3dbcfc36	0.09227793
34	0x3ece6b69	0.40316322
35	0x3d072674	0.032995656
36	0x3c681d03	0.014167073
37	0x3f34f8ef	0.7069234
38	0x3f36f283	0.71463794
39	0x3c968783	0.018375164
40	0xbe96200b	-0.29321322
41	0x3da52751	0.0806414
42	0x3dd72fd7	0.105071716
43	0xbef88a1b	-0.48542866
44	0xbf0ff10f	-0.562272
45	0xbec557d1	-0.3854356
46	0x3e8c833d	0.27443877
47	0xbf288d7f	-0.65840906
48	0x3dd1b6e0	0.10239959
49	0xbf1be24f	-0.60892195
50	0xbedba518	-0.42899394
51	0xbedd25dc	-0.43192947
52	0x3e809366	0.25112456
53	0x3dacbfdf	0.08435034
54	0xbf054119	-0.52052456
55	0xbe9c6231	-0.30543664
56	0xbeb85fb4	-0.36010516
57	0x3f33e315	0.70268375
58	0x3e320de1	0.17388107
59	0x3eacfc91	0.33786443
60	0x3f040b75	0.5157998
61	0x3e1b4c36	0.15165791
62	0xbebc3292	-0.36757332
63	0x3daf5e5e	0.08562921
64	0xbe013d12	-0.12620953
65	0xbed9e49b	-0.42557225
66	0xbf31c1a2	-0.69436085
67	0x3ed511a5	0.41615024
68	0xbf3318cf	-0.6995973
69	0x3decd337	0.115637235
70	0xbefff072	-0.49988133
71	0xbdc4790e	-0.09593402
72	0x3ef18ab5	0.47176138
73	0x3ef152ed	0.4713358
74	0x3f190ec3	0.5978815
75	0xbf424a7d	-0.7589491
76	0xbf081d15	-0.53169376
77	0xbeac64b3	-0.33670577
78	0xbcd0db1e	-0.025495108
79	0xbeb14cfd	-0.3462905
80	0x3e97cb5e	0.29647344
81	0xbf0a13a0	-0.53936195
82	0xbe351b68	-0.17686236
83	0x3e3bdfe8	0.18347132
84	0xbc778ce1	-0.015109272
85	0xbe5fdb31	-0.21860959
86	0xbedcc12c	-0.43116128
87	0x3ef8075a	0.4844311
88	0x3e9278ef	0.2860789
89	0xbeae9e4b	-0.34105143
90	0x3e71d552	0.23616531
91	0x3ee81344	0.45327199
92	0x3e944e9b	0.2896622
93	0x3ecefb72	0.40426213
94	0xbee91f8a	-0.45531875
95	0x3e5e28eb	0.21695296
96	0x3cead9e0	0.028668344
97	0x3efeb2e6	0.49745864
98	0x3f076a74	0.5289681
99	0xbeb5db5e	-0.35518926
100	0xbf19470b	-0.5987403
101	0xbe8c20a0	-0.2736864
102	0x3f17a872	0.592414
103	0xbf261d06	-0.64888036
104	0x3dbcb511	0.09214223
105	0xbd9d16f0	-0.076703906
106	0xbe6eb03a	-0.23309413
107	0x3eee6294	0.46559584
108	0xbe66305b	-0.22479384
109	0xbe86e230	-0.26344442
110	0xbf3263d8	-0.696836
111	0x3f0ecb18	0.55778646
112	0x3d05f4bc	0.0327041
113	0x3f143782	0.578972
114	0xbf24ec7a	-0.64423335
115	0xbdab3d5b	-0.08361312
116	0x3ef95af1	0.48702195
117	0xbd915508	-0.070962965
118	0x3ebe3f63	0.37157735
119	0x3e7021f7	0.23450457
120	0x3e33fbb9	0.17576493
121	0xbf217251	-0.6306506
122	0x3ef22da7	0.47300455
123	0xbf2a0a75	-0.66422206
124	0xbe3e5b3b	-0.18589489
125	0xbed9d953	-0.42548618
126	0xbcd0aba6	-0.025472473
127	0xbe28405e	-0.16430804
128	0x3e45ef37	0.19329534
129	0x3f37b28f	0.71756834
130	0x3e7b5797	0.24545132
131	0xbee639cd	-0.44965973
132	0x3f2689c8	0.6505399
133	0x3dd2465d	0.10267327
134	0x3f0d80b1	0.5527449
135	0xbea4f121	-0.32215217
136	0xbede49cc	-0.43415678
137	0x3f05306e	0.5202702
138	0x3f2aab88	0.66667986
139	0x3d987329	0.0744384
140	0xbdd4549c	-0.103677005
141	0x3e2f39eb	0.17111938
142	0x3f0a77e9	0.5408922
143	0xbf31c8b5	-0.6944688
144	0xbd17f3b6	-0.037097655
145	0x3f1dabc2	0.61590207
146	0x3f1da580	0.6158066
147	0x3f03ff0e	0.5156106
148	0xbdc03b88	-0.09386355
149	0x3d34895c	0.04407631
150	0xbf11278d	-0.56700975
151	0x3f0373d6	0.51348627
152	0x3e927dbd	0.28611556
153	0x3e4d1b59	0.20029964
154	0x3b552806	0.0032525077
155	0x3efc47db	0.4927357
156	0x3e0e3d4f	0.13890575
157	0x3edba9bf	0.42902943
158	0xbde155ea	-0.11002715
159	0x3ecc58c3	0.3991147
160	0xbe21f229	-0.15815033
161	0xbee7291f	-0.4514856
162	0xbf139708	-0.5765233
163	0x3e0ba2b8	0.13636291
164	0xbef0998b	-0.46992144
165	0x3edc1a6f	0.42988917
166	0xbea871bc	-0.32899272
167	0xbee91c72	-0.45529515
168	0x3e8ed829	0.27899292
169	0xbec3e620	-0.3826151
170	0x3f2ddb0e	0.67912376
171	0xbe49bf34	-0.19701844
172	0xbea0dbd6	-0.31417722
173	0xbc68a61e	-0.014199762
174	0xbe973db2	-0.29539257
175	0x3cf0bd12	0.02938703
176	0x3edbfd59	0.42966726
177	0xbec8d4ec	-0.39224946
178	0xbe12f3b3	-0.14350776
179	0xbf2844dc	-0.6573007
180	0x3ed7638b	0.42068133
181	0x3d544a25	0.051828522
182	0xbce2afd0	-0.027671725
183	0xbf2f800b	-0.68554753
184	0xbe2a211d	-0.16614194
185	0x3ed8b990	0.42329073
186	0xbe1fce8a	-0.15606132
187	0x3f3cd4f3	0.73762435
188	0x3f179480	0.5921097
189	0x3e34afc4	0.17645174
190	0x3e1f6ec9	0.15569605
191	0x3f089b40	0.5336189
192	0xbd0b2cdc	-0.033978328
193	0xbf3ae3fe	-0.7300414
194	0x3e87f893	0.26556835
195	0xbe6a3e60	-0.22875357
196	0xbf037666	-0.51352537
197	0x3f1937e5	0.59850913
198	0x3e8652a4	0.26234925
199	0xbeef9176	-0.46790665
200	0x3e71fdd4	0.23631984
201	0xbef8f79b	-0.48626408
202	0x3ec8d39e	0.3922395
203	0x3f201855	0.6253713
204	0xbef67690	-0.4813733
205	0x3e661966	0.22470626
206	0xbe566830	-0.20938182
207	0x3edba3f2	0.42898518
208	0x3e4ca59a	0.19985047
209	0x3ba8a993	0.005147168
210	0x3ebb65a0	0.3660097
211	0x3f135e50	0.57565784
212	0x3d9b3a05	0.07579426
213	0xbf07f2a4	-0.53104615
214	0x3ec3fe51	0.38279966
215	0xbefb4684	-0.49077237
216	0xbd15d5cd	-0.03658085
217	0x3e634957	0.22195946
218	0x3fa7f5c6	1.3121879
219	0xbd8fc2b0	-0.070195556
220	0x3ec0659d	0.37577525
221	0xbe4dc521	-0.2009473
222	0x3eab51f3	0.3346096
223	0xbef8bbcd	-0.4858078
224	0x3f3288ac	0.69739795
225	0xbe117eb3	-0.14208488
226	0x3da4f366	0.08054237
227	0x3dbc3001	0.091888435
228	0xbe2b88e4	-0.16751438
229	0xbdc13856	-0.09434573
230	0x3e03e84e	0.12881586
231	0x3e80ba2e	0.25142044
232	0x3ee0602e	0.4382338
233	0xbec81441	-0.39077953
234	0xbf4b7be1	-0.794859
235	0xbe361406	-0.17781076
236	0xbebfdea0	-0.37474537
237	0xbceae78a	-0.02867486
238	0x3f1215cf	0.5706453
239	0xbeb9d719	-0.3629692
240	0x3f3631e5	0.71169883
241	0xbf3038c0	-0.68836594
242	0x3ea7497f	0.3267326
243	0x3e1b9716	0.15194353
244	0x3e84449f	0.25833604
245	0xbe644b3b	-0.22294323
246	0x3e549738	0.2076081
247	0x3ea73f05	0.32665268
248	0xbeb0f166	-0.34559172
249	0x3ebe308d	0.37146416
250	0xbe934e16	-0.28770512
251	0x3f4a55bd	0.79037076
252	0xbc85d408	-0.016336456
253	0x3f0abcdb	0.5419442
254	0x3f1381a4	0.5761969
255	0x3e9fbcdb	0.31198773

decoder.0.bias f4 [13312]
0	0xbf0277ba	-0.5096394
1	0x3f041e76	0.5160898
2	0x3edb43a9	0.42825058
3	0xbf3217bd	-0.6956747
4	0xbecebfc2	-0.40380675
5	0xbeebe230	-0.46071005
6	0xba2e26eb	-0.00066433725
7	0xbdd2dccd	-0.10296021
8	0xbd9acfb9	-0.07559151
9	0x3da20933	0.07911911
10	0x3e596e84	0.21233565
11	0x3ef94be0	0.486907
12	0xbe69678c	-0.22793406
13	0x3e2b61a5	0.16736467
14	0x3e8d1c04	0.27560437
15	0xbe684e37	-0.22686087
16	0x3ee55f26	0.44799155
17	0xbe8f6cc6	-0.28012675
18	0xbecf703a	-0.4051531
19	0x3ef37d38	0.47556472
20	0xbd6976fa	-0.05699823
21	0xbf0aa9c1	-0.54165274
22	0x3eee5f5e	0.46557134
23	0x3e9872ab	0.29774985
24	0x3e136b65	0.14396437
25	0xbf389dad	-0.72115594
26	0xbe4e3991	-0.20139147
27	0x3f2a011a	0.6640793
28	0x3eaa26ad	0.33232632
29	0x3f0e2416	0.5552381
30	0x3e3225ca	0.17397228
31	0xbe8a09c7	-0.26960585
32	0xbf15a016	-0.58447397
33	0xbe8766d5	-0.26445642
34	0xbf06064c	-0.5235336
35	0xbee879aa	-0.45405322
36	0x3e942e8b	0.2894176
37	0xbea7ac07	-0.32748434
38	0x3e04a37f	0.12952994
39	0xbebbbd9d	-0.366681
40	0xbe8fc761	-0.28081802
41	0x3e9769e3	0.29572973
42	0x3e906b69	0.28206947
43	0x3e980dfa	0.29698163
44	0xbd800298	-0.06250495
45	0xbf098751	-0.537221
46	0xbe8e27cd	-0.2776474
47	0x3ecd4329	0.40090302
48	0x3eea86e2	0.45806032
49	0xbe1750a0	-0.1477685
50	0xbec16e75	-0.37779585
51	0xbf132d9a	-0.5749146
52	0x3e8dab32	0.27669674
53	0x3e999c76	0.30002183
54	0xbf1ebc2b	-0.6200587
55	0xbd3933aa	-0.045215286
56	0xbe750004	-0.23925787
57	0x3eaf75f1	0.3426967
58	0x3e6362a1	0.22205593
59	0x3ee05251	0.43812802
60	0x3f106a7b	0.56412476
61	0xbdb3eda3	-0.0878556
62	0xbe5facd3	-0.21843271
63	0xbeda9d82	-0.42698294
64	0x3eb111c3	0.34583864
65	0x3dbe7ba3	0.093009256
66	0x3f15b9a8	0.58486414
67	0xbda5ff05	-0.08105282
68	0xbf34cf73	-0.7062904
69	0x3e58eba8	0.21183646
70	0xbdf86bef	-0.12129962
71	0x3efeeba0	0.49789143
72	0xbee3c4c1	-0.4448605
73	0xbea8bbe5	-0.32955852
74	0xbf0f1806	-0.5589603
75	0x3d8b7000	0.06808472
76	0xbbc11a56	-0.005893032
77	0x3ec21a24	0.3791057
78	0x3f31b326	0.69413984
79	0xbd500765	-0.050788302
80	0x3efa9988	0.4894526
81	0x3ea50b9d	0.32235423
82	0x3f1661da	0.5874306
83	0x3ea48d8f	0.3213925
84	0xbcc6f011	-0.024284394
85	0x3ea2cf60	0.3179884
86	0xbebfe22c	-0.37477243
87	0x3f415789	0.75524193
88	0xbf0809df	-0.5314006
89	0xbee15f4b	-0.44018015
90	0xbf2acb74	-0.66716695
91	0x3f037d1a	0.51362765
92	0xbf14365c	-0.57895446
93	0x3e56b97d	0.20969196
94	0x3dac4a02	0.08412553
95	0x3ec83f98	0.39111018
96	0x3ed88c2e	0.4229445
97	0xbeba264a	-0.36357337
98	0xbf054bcf	-0.520688
99	0x3ed94211	0.42433217
100	0xbee593da	-0.44839364
101	0x3e3a0480	0.18165779
102	0xbcd38eb3	-0.02582488
103	0x3d252121	0.040314797
104	0xbf1ccabc	-0.6124685
105	0xbdf4f92b	-0.119615875
106	0xbe61b712	-0.22042492
107	0xbc8579de	-0.016293462
108	0xbedab9bb	-0.42719826
109	0x3e0f7b11	0.1401179
110	0x3f4f3b1d	0.80949575
111	0x3eb3610e	0.35034984
112	0xbd9adbee	-0.075614795
113	0x3f18cf5b	0.596914
114	0x3f10eec3	0.5661432
115	0xbec913f5	-0.39273039
116	0x3eac1764	0.33611596
117	0x3da2691e	0.07930206
118	0xbdea0330	-0.11426389
119	0xbe6b5eaf	-0.22985338
120	0xbdcb5442	-0.0992818
121	0x3f0e0a0e	0.5548409
122	0xbf312f2b	-0.692126
123	0x3f02b19c	0.5105226
124	0x3e9bbe52	0.3041864
125	0x3e370ff5	0.17877181
126	0xbf2e4d03	-0.6808626
127	0xbf25fd05	-0.648392
128	0x3f071d67	0.5277924
129	0xbcdd9c3d	-0.02705204
130	0xbe8432dc	-0.25820053
131	0x3f1026d6	0.5630926
132	0xbf27da26	-0.65567243
133	0x3eb14b1e	0.34627622
134	0x3f440254	0.7656605
135	0x3e9f8719	0.3115776
136	0x3cc25ffa	0.023727406
137	0xbe972bce	-0.29525608
138	0x3e9d0bff	0.30673215
139	0xbf193950	-0.59853077
140	0x3ec4ae0d	0.3841404
141	0xbe90e01d	-0.28295985
142	0x3e991ea8	0.299062
143	0x3ee2a1b4	0.44263995
144	0x3e2bd6c8	0.16781151
145	0x3f19c93c	0.60072684
146	0x3dd96a2d	0.106159545
147	0x3de62ad2	0.11238636
148	0xbe18da86	-0.1492711
149	0xbd932e44	-0.07186559
150	0xbefb9c7d	-0.4914283
151	0xbedba46b	-0.42898878
152	0x3e6e6c60	0.2328353
153	0x3e929c96	0.2863509
154	0x3ed86944	0.4226781
155	0xbf4274f9	-0.75959736
156	0xbdc12bd4	-0.09432188
157	0x3dad5541	0.084635265
158	0xbf0ef73b	-0.55845994
159	0x3f1535f9	0.5828548
160	0xbe73cec9	-0.23809351
161	0xbe05cac5	-0.13065632
162	0xbc772265	-0.015083884
163	0x3f02e599	0.5113159
164	0xbf082aa5	-0.5319007
165	0x3f1d094f	0.6134233
166	0x3f05bd4e	0.5224198
167	0xbcf47f6e	-0.02984592
168	0xbf42f8ed	-0.7616108
169	0x3e382017	0.17980991
170	0x3e0fa723	0.14028601
171	0xbed052db	-0.40688214
172	0x3e4de64b	0.20107381
173	0xbf1a8321	-0.60356337
174	0xbef02472	-0.46902806
175	0x3f1bfe34	0.6093476
176	0xbef181f6	-0.47169465
177	0x3e394167	0.18091355
178	0xbf242a26	-0.64126813
179	0x3ee315b3	0.44352493
180	0xbd62932c	-0.055316135
181	0x3e0a47c5	0.1350394
182	0x3e9dab04	0.30794537
183	0xbe92c3e9	-0.28665093
184	0x3ed411c6	0.4141981
185	0x3bc8ba09	0.0061256927
186	0xbed10db1	-0.40830758
187	0xbf13f716	-0.577989
188	0x3edd6efa	0.4324873
189	0xbf1ec087	-0.62012523
190	0xbdb8adbc	-0.09017512
191	0x3ece091c	0.40241325
192	0x3ec165d7	0.3777301
193	0x3e95e2e3	0.29274663
194	0xbe954e13	-0.29161128
195	0xbeb679b1	-0.35639718
196	0xbe84f57a	-0.25968534
197	0x3f227631	0.63461596
198	0x3aa3cc96	0.0012496884
199	0xbe4b55b7	-0.19856916
200	0x3e243240	0.16034794
201	0xbe3ab539	-0.18233193
202	0xbde2f3fe	-0.11081694
203	0xbf27635c	-0.65385985
204	0xbf2494f7	-0.642898
205	0xbe5ad6c4	-0.21370989
206	0xbe8feee6	-0.28111953
207	0x3aa9e0b1	0.001296064
208	0x3bb7f6c0	0.0056141317
209	0xbec5f896	-0.3866622
210	0x3f15af45	0.58470565
211	0x3f2ae2e5	0.66752464
212	0x3e7eea3f	0.24894045
213	0xbe994cde	-0.29941458
214	0xbf2c6d4e	-0.67354286
215	0x3eb0a7cb	0.34503016
216	0xbd57fbdf	-0.052730437
217	0x3ed92cab	0.4241689
218	0x3e872005	0.26391616
219	0xbdd05b97	-0.101737194
220	0x3f34efa9	0.7067819
221	0xbe950a7d	-0.29109564
222	0x3e75e978	0.24014843
223	0x3ec283aa	0.37991077
224	0x3f03e684	0.51523614
225	0xbe17b707	-0.14815913
226	0x3f106197	0.5639891
227	0x3ed400f5	0.4140698
228	0xbdad17d2	-0.08451809
229	0xbd29ac27	-0.041423943
230	0x3dfdf13e	0.12399529
231	0x3d9c53a1	0.076331384
232	0xbdfa415f	-0.122195
233	0xbe377bf5	-0.1791838
234	0x3e8d4de7	0.27598497
235	0xbd97cb5e	-0.07411836
236	0xbd4ee65d	-0.05051266
237	0x3a21eea4	0.0006177223
238	0x3efd21b4	0.49439776
239	0xbe907e8c	-0.28221548
240	0x3efc46fa	0.492729
241	0xbf1fd80f	-0.62439054
242	0x3d8b1ed5	0.0679299
243	0x3f017c7a	0.5058056
244	0xbe580522	-0.21095708
245	0xbf0b7827	-0.5448021
246	0xbef1c55f	-0.47220895
247	0x3e86bac4	0.26314366
248	0xbea5a4ed	-0.3235239
249	0x3ee9d8fb	0.45673355
250	0xbdf37f68	-0.11889535
251	0x3eabe41b	0.33572468
252	0x3e22639a	0.15858307
253	0xbecda582	-0.40165335
254	0xbf0fac6e	-0.5612248
255	0xbedb98bb	-0.42889962

decoder.3.weight f4 [64, 32, 3, 3]
0	0x3c54b047	0.012981481
1	0x3dbded24	0.092737466
2	0xbcc1c7cf	-0.023654846
3	0x3c15b88b	0.009138237
4	0x3d319558	0.043355316
5	0xbd8a880e	-0.067642316
6	0x3d3bb32d	0.045825172
7	0xbdd8c6c0	-0.105847836
8	0xbc16cda2	-0.0092043
9	0xbd3c9fbd	-0.046050776
10	0x3d8723ac	0.06598601
11	0xbca4c15b	-0.02011173
12	0xbd260c33	-0.040538978
13	0x3cae918a	0.021309633
14	0x3d106214	0.035249785
15	0x3c7ccf71	0.015430317
16	0xbc2fd651	-0.010732249
17	0xbd801714	-0.06254402
18	0xbd8165cf	-0.063182466
19	0x3be5697b	0.0070010996
20	0xbc4b5644	-0.012410704
21	0xbd66b87e	-0.05632829
22	0x3cffb150	0.031212479
23	0xbdb6810e	-0.08911334
24	0xbd5085c3	-0.050908815
25	0x3d304219	0.043031786
26	0x3b79964a	0.0038083964
27	0x3d3d6b6d	0.046245027
28	0xbca3a994	-0.019978322
29	0x3d530896	0.05152186
30	0x3c810cb3	0.015753126
31	0x3ca68861	0.020328702
32	0xbcb6be74	-0.022307612
33	0x3d24c89e	0.040230386
34	0x3c031620	0.0080008805
35	0xbbcf4342	-0.0063251564
36	0xbcda6051	-0.026657255
37	0x3d634baa	0.05549208
38	0x3d41e061	0.047333125
39	0x3c8083db	0.015687874
40	0x3c67b300	0.014141798
41	0xbc132efb	-0.008983369
42	0x3cd79193	0.026314532
43	0x3d01a36a	0.031649984
44	0xbb22f178	-0.0024863165
45	0x3a2842de	0.00064186554
46	0x3d5c20e1	0.053742293
47	0x3ca91d5e	0.020643886
48	0xbca5fc20	-0.020261824
49	0x3c438c7e	0.011935351
50	0x3dbc9f89	0.092101164
51	0x3c67b421	0.014142067
52	0xbc6af453	-0.014340478
53	0x3c636f54	0.013881523
54	0xbd3f5fe5	-0.04672231
55	0xbcc2d97d	-0.023785347
56	0xbdf9b6b1	-0.12193049
57	0x3cf12702	0.029437546
58	0xbdfaa97f	-0.1223936
59	0x3c490f2a	0.012271682
60	0x3d8ee7c0	0.069777966
61	0x3b83b83b	0.0040197647
62	0xbd3cd230	-0.046098888
63	0xbd8cfc15	-0.06884018
64	0x3c07b529	0.008282938
65	0xbae589aa	-0.001751234
66	0x3c771590	0.0150808245
67	0xbd46375f	-0.04839265
68	0xbd57bb1b	-0.052668672
69	0x3cbec602	0.023287777
70	0xbd19d0d7	-0.03755268
71	0x3d2ef510	0.04271418
72	0x3ab80ba9	0.0014041561
73	0xbc058e2a	-0.00815157
74	0xbdaf1de1	-0.08550621
75	0xbc352ecc	-0.0110585205
76	0x3dbf5963	0.09343221
77	0xbcc177c7	-0.023616685
78	0xbd9c21af	-0.07623612
79	0xbd3c7062	-0.046005614
80	0xbd8630d5	-0.06552283
81	0xbceacc55	-0.028661886
82	0x3d3ee843	0.04660822
83	0x3d36cac8	0.04462698
84	0x3c23b1d6	0.00999113
85	0x3d173bb3	0.036922168
86	0xbdb81a81	-0.0898943
87	0xbcd420d5	-0.025894562
88	0x3d054d67	0.03254452
89	0xbd066d56	-0.032819115
90	0xbd7ef5bd	-0.062246073
91	0x3d6b2998	0.057412714
92	0x3d54d80e	0.05196386
93	0x3d91a124	0.07110813
94	0xbd145160	-0.036210418
95	0x3b90df14	0.0044211242
96	0x3cc780ff	0.024353502
97	0xbd705050	-0.058670342
98	0xbd53fe41	-0.051756147
99	0x3ca25af5	0.019818762
100	0xbd847de7	-0.064693265
101	0xbb97fdb8	-0.0046384
102	0x3d8866c7	0.06660228
103	0x3d1eb4d3	0.038746666
104	0x3ca63cdf	0.020292697
105	0x3cc2a3d5	0.023759762
106	0x3c5c0427	0.013428724
107	0x3d1501c4	0.036378637
108	0xbdbe8506	-0.09302716
109	0xbd28cd66	-0.04121151
110	0x3d5e42d3	0.054262947
111	0x3c08b80a	0.00834466
112	0xbbcea49c	-0.006306244
113	0xbdc575f8	-0.096416414
114	0x3ccf2ad5	0.025288979
115	0xbbdbd62b	-0.0067088804
116	0xbb918138	-0.004440453
117	0x3c56edba	0.013118202
118	0xbd3dedbd	-0.046369303
119	0xbd4be1c4	-0.049775854
120	0xbdbfbe36	-0.09362452
121	0x3c31865c	0.010835256
122	0xbbc044f3	-0.0058675944
123	0x3c466928	0.012110032
124	0xbd02c82a	-0.031929173
125	0xbce36738	-0.02775918
126	0xbd696dec	-0.056989595
127	0x3b8615fe	0.004091977
128	0xbdc57d3e	-0.09643029
129	0x3c003c5c	0.007826891
130	0xbc426af9	-0.011866325
131	0xbd922fa6	-0.071379945
132	0x3d22cb7e	0.039744847
133	0xbd878562	-0.06617238
134	0xbcddedee	-0.027090993
135	0xbcb8c8a3	-0.022556609
136	0x3d742ad0	0.05961114
137	0xbc092d6c	-0.008372646
138	0x3c8ef5b7	0.01745115
139	0x3da783c3	0.081794284
140	0xbd843e11	-0.06457151
141	0xbcddcf39	-0.02707635
142	0x3c0687f6	0.008211127
143	0xbd676835	-0.056495864
144	0xbdb4f208	-0.08835226
145	0x3c80152f	0.015635101
146	0xbdbaaab8	-0.09114593
147	0x3d3fc074	0.046814397
148	0xbdc64b7e	-0.09682368
149	0x3cddba04	0.027066238
150	0xbce0c712	-0.027438674
151	0x3db0dcf3	0.08635893
152	0x3cd801dd	0.026368076
153	0xbd506ac3	-0.050883066
154	0x3d2e28e8	0.04251948
155	0xbc8cd0c5	-0.017189393
156	0xbd56f132	-0.052476116
157	0xbb84b03d	-0.0040493296
158	0x3cfd052b	0.030886253
159	0xbd4410e2	-0.047867663
160	0xbd854176	-0.06506626
161	0xbc05009a	-0.008117819
162	0xbdb9b908	-0.09068495
163	0xbc7595d1	-0.014989332
164	0x3cf15366	0.029458713
165	0xbd4bc504	-0.049748436
166	0xbcddd6aa	-0.027079899
167	0xbc5041ff	-0.012711047
168	0xbd2fc906	-0.04291632
169	0xbcacc9f7	-0.021092398
170	0xbd4bf16e	-0.049790792
171	0x3d88bb03	0.06676295
172	0xbc8dcef2	-0.017310593
173	0x3d240820	0.04004681
174	0x3bf5c6f1	0.0075005223
175	0xbbd64983	-0.006539525
176	0x3d23648e	0.03989082
177	0x3d530832	0.051521488
178	0xbd8d2acd	-0.06892929
179	0x3d658b69	0.056041155
180	0x3d11f9c0	0.03563857
181	0x3c79b43b	0.015240724
182	0x3c6f7919	0.014616274
183	0x3cc88a11	0.024479898
184	0xbd74ca07	-0.05976298
185	0x3d6866de	0.056738727
186	0xbc9ebbf5	-0.019376734
187	0xbb14fa99	-0.0022732376
188	0xbd2b2011	-0.041778628
189	0x3be971a8	0.0071241446
190	0xbca10a46	-0.01965822
191	0x3bc739da	0.0060798945
192	0x3e05c7cd	0.13064499
193	0xbcdcf82e	-0.02697381
194	0xbdcd79ac	-0.10032973
195	0xbcbffd73	-0.023436284
196	0x3d00fb1b	0.031489473
197	0x3d02c5fc	0.031927094
198	0x3b6069e5	0.0034242806
199	0xbd603c26	-0.054744862
200	0x3bb3a1f2	0.005481952
201	0x3cb6021b	0.0222178
202	0xbdb769d8	-0.08955735
203	0x3b571f75	0.0032825146
204	0xbd6460b4	-0.055756286
205	0x3a42ef2c	0.0007436152
206	0xbb1b3613	-0.0023683354
207	0xbb478ee1	-0.0030450153
208	0xbdf539be	-0.11973904
209	0x3c7faa14	0.015604515
210	0xbceb7751	-0.028743418
211	0xbd85f050	-0.065399766
212	0x3bfcb10c	0.0077115353
213	0x3ce9c63b	0.028536906
214	0x3b935200	0.004495859
215	0xbc34ab9a	-0.011027241
216	0xbd08930d	-0.033343364
217	0xbd98de91	-0.07464326
218	0xbc61b93e	-0.013777075
219	0xbb9e618d	-0.0048334063
220	0x3dad1a9c	0.08452341
221	0xbc416c90	-0.0118056685
222	0x3c8c7fbf	0.017150758
223	0xbdc0d194	-0.09414974
224	0xbcdfdf0d	-0.027328039
225	0xbd0fd1a7	-0.03511205
226	0x3b85af4e	0.004079736
227	0xbddc74f4	-0.107644945
228	0x3d916ba1	0.07100607
229	0xbc32f7c1	-0.010923327
230	0x3c783990	0.015150443
231	0x3ca26c49	0.019827025
232	0xb90590f8	-0.00012737873
233	0xbd41c940	-0.047311068
234	0x3c2e0da0	0.010623366
235	0xbd8b9a0d	-0.06816492
236	0x3ad47fa5	0.0016212357
237	0x3d341493	0.043964934
238	0xbcacbf81	-0.02108741
239	0xbc7e3b5f	-0.015517085
240	0x3b44702c	0.0029974086
241	0x3d5bdfdc	0.053680286
242	0xbd95a3bb	-0.0730662
243	0x3d5a8f81	0.053359512
244	0xbd404d48	-0.0469487
245	0xbcdd5760	-0.027019203
246	0xbd61beb3	-0.055113506
247	0x3d3dd935	0.046349723
248	0x3d3488aa	0.044075646
249	0xbcff32d0	-0.031152159
250	0xbdd1fcd8	-0.10253304
251	0xbcda29ac	-0.026631199
252	0xbd41fda9	-0.04736105
253	0x3d3664a0	0.044529557
254	0x3d2cc509	0.042180095
255	0xbdb3ea8d	-0.087849714

decoder.3.bias f4 [32]
0	0x3d0e8a33	0.034799766
1	0x3e5bba71	0.2145784
2	0x3c9d1aa5	0.019177744
3	0xbd30c476	-0.04315611
4	0x3d17651d	0.036961664
5	0xbd030ce1	-0.031994704
6	0x3d76a6c3	0.06021763
7	0x3c161fa1	0.009162814
8	0x3c354819	0.011064553
9	0x3ca0edfa	0.019644726
10	0x3c801faf	0.015640108
11	0x3d49b579	0.04924533
12	0x3d3eecec	0.046612665
13	0x3c7b35ac	0.015332621
14	0xbc24e4de	-0.010064332
15	0x3db508d8	0.088395774
16	0xbd0aba2c	-0.033868954
17	0x3a7e35ed	0.00096973666
18	0x3b833836	0.0040045036
19	0xbdcdebc4	-0.10054734
20	0xbdfe9e38	-0.124325216
21	0x3dae3280	0.08505726
22	0xbaa0c2ae	-0.001226505
23	0x3c11d50a	0.00890089
24	0x3c430e75	0.011905302
25	0x3bc7bf05	0.0060957693
26	0x3db154fd	0.08658788
27	0xbcaf49a4	-0.02139742
28	0x3dadb322	0.084814325
29	0xbcfb997e	-0.03071284
30	0x3d2abd4c	0.041684434
31	0xbcf2d7dc	-0.029643945
